app/src/main/assets/ai_partmodel.lite (tflite, 796 bytes, 2 tensors)

MatMul_bias f4 [10]
000000 3f 94 2d 3e bc 5a ae be 5b 23 b7 3d c9 82 8c 3d
       0.16951083 -0.340536 0.089422904 0.06860883
000010 aa 73 2a 3d 6d a3 7c 3e 63 64 27 3f 3d 24 c3 bc
       0.041614212 0.24671717 0.6538755 -0.02382099
000020 30 5e 42 bd 16 b5 bb be
       -0.047453105 -0.36661595

Variable/transpose f4 [10, 1]
000000 65 0a 1d bf c6 56 2c 3f cd 8b cb 3e ae 7e 02 3f
       -0.61343986 0.67319906 0.39755097 0.5097455
000010 06 45 c3 3f dd d7 20 bf 4b 01 10 c0 30 f7 90 bf
       1.5255439 -0.6282938 -2.250079 -1.1325436
000020 59 80 45 bd 6b 3f 41 3f
       -0.048218105 0.75487393
